ppo_model.pth (torch, 143698 bytes, 11 tensors)

actor.0.weight f4 [128, 4]
00000000: 2899 e5bd 7c9c 8e3e 04ba febe 385e f83d
00000010: 70c3 b43e 0024 9ebe 5622 f3be 002f 003c
00000020: a6b4 d2be 08a0 e93e 580e e23e 98a9 bcbd
00000030: f80e 94be 2810 d8be e0e1 0f3d 686b b8bd
00000040: 7cdd 9bbe 4ee7 cbbe ea27 a63e 28ac 79be
00000050: 00a1 763b 1036 1b3d d856 b2bd 8034 e0be
00000060: ba60 cbbe 00e6 39bc 3052 173d 841c 4dbe
00000070: 1ca6 463e c0da d8bd 1e33 ca3e ac7f 3d3e
00000080: 4401 ae3e 1c0b 50be cea6 a33e 409c dc3c
00000090: 06fe ec3e 88cc 893e 98e3 a43d 7420 edbe
000000a0: 9251 a7be b201 b13e 2c73 363e da5a d5be
000000b0: c0e4 fe3e d472 ab3e 58f1 423e b0cd 1bbe
000000c0: 30a4 e0bd 968b 973e 5007 aa3e b0aa 5fbd
000000d0: 1a8b f43e d042 303e 3c2b 18be e829 48be
000000e0: d27d c83e 74d9 15be 14e7 683e 607f fd3d
000000f0: d4c9 71be 005d 7cbd c855 803e 307f e13e
00000100: 4496 493e cefc e2be 606d fe3c b6b9 833e
00000110: c05c 68be 90d3 4ebd 42e5 b2be 00e6 a23d
00000120: e0ab c13c 00fa 3abc d07f 583d 24b9 6bbe
00000130: 0674 e13e 282a c83d ba3b b8be e4d0 a33e
00000140: a2f0 b6be 8a6d b43e 6c3a 2abe 98d4 3dbe
00000150: 9e3e 95be 008e cfbd d076 c63e 7491 2d3e
00000160: 3895 5fbe 9ede 823e 4016 5c3c e2f7 f73e
00000170: 22b2 cb3e 7000 1d3e 5a54 d7be fe2f 91be
00000180: 4004 99be 1c8d 4c3e 84c4 c5be 9029 06bd
00000190: b6df eebe f09b 0cbe 5e1e aabe e235 8bbe
000001a0: 94bb 9d3e 767e aa3e c8cd 843e 00c4 983b
000001b0: 54a5 383e 285c ae3d 4ee4 df3e 40ff 42bc
000001c0: 4c64 043e f829 f73d 84fa 4b3e c839 2f3e
000001d0: 00f0 35ba 402d 7b3d 2286 c8be 1868 f83d
000001e0: b84a 94be 0cd0 26be c04a 51be de6f b43e
000001f0: 705d 053e 687e 55be 40b3 f93d 30ab 63bd
00000200: e8c7 a83e 486f e1bd f821 92be e054 e8be
00000210: 1a57 edbe 1009 65be 000c 83bc ce20 be3e
00000220: a0c8 e83d 7086 c7be 603e 5abe 3cb1 453e
00000230: 801c c0bb 2446 933e 7225 a9be b886 dd3e
00000240: eece ad3e d07e 20be 5085 4c3e 1cd1 8d3e
00000250: 7649 fdbe aac1 c43e a40a c93e a8c9 cb3e
00000260: 901a 5cbd 02b1 a1be 20dc 52be 20d6 edbe
00000270: 8cac 33be 92fd f63e 9896 df3d a8f4 813d
00000280: 5afe fbbe e834 a73e 28ac f83e dce7 653e
00000290: 0602 eb3e b45c 9abe 4617 9dbe 4e99 a4be
000002a0: 1e8a fcbe 40fd ef3c 74ba 66be d453 8ebe
000002b0: d8f2 8a3d ca67 953e 988d df3e e679 9bbe
000002c0: 745f 25be a2c7 df3e 9457 a73e f406 33be
000002d0: b056 813e 6431 d0be e852 ee3d 7ec6 9dbe
000002e0: 2033 fb3d 28e5 593e a6ec e23e 72bd d93e
000002f0: 8884 d8bd 6ce5 d13e 9a68 99be a084 89bd
00000300: c0dd 913e d88c ee3d 76d8 af3e 7c6e 653e
00000310: 502d 2c3d b2ae d6be 4c93 2dbe b835 2abe
00000320: 3017 aa3e 8e12 f0be c887 b4bd 38f4 bebe
00000330: e8ee bdbe cc55 d83e ee58 f23e 8271 dcbe
00000340: e8c1 ee3e b810 23be f02e 89be 20bf a9bd
00000350: 8034 9fbe 5cc9 a43e 5cd5 98be 363b bf3e
00000360: 6cd9 fb3e 10b9 fcbd a4ac bbbe aa00 b3be
00000370: 34b8 e0be 5e1e 8d3e 8043 b43b 0834 a03e
00000380: e0e6 a0bd 5846 7dbe 52ed ad3e 6816 173e
00000390: d81f dfbd 8a3c 973e 18f3 1fbe bc4a fe3e
000003a0: f06f d6be 380f d93e d0fb 223e 3e70 dbbe
000003b0: ec28 e6be 7e36 e33e 7a48 f7be c0e7 42bd
000003c0: 5e9f 80be 8a4a 9a3e b47c 8abe b06c fa3e
000003d0: 565e e1be 084c 573e f643 e03e 60d6 e13c
000003e0: a689 cbbe f08e b6be b638 92be 7083 f4be
000003f0: 58fc bdbd e011 d03e 4c4b 34be e0e6 ecbd
-0.11210853 0.27853763 -0.49751294 0.12127346 0.35305357 -0.3088684 -0.47487134 0.007823706
-0.4115345 0.45629907 0.44151568 -0.09212035 -0.2891767 -0.42199826 0.03512752 -0.09004861
-0.30442417 -0.3982491 0.32452327 -0.24382079 0.0037632585 0.037893355 -0.087079704 -0.43790054
-0.39722234 -0.01134634 0.036943614 -0.20030409 0.19399303 -0.10588598 0.39492124 0.18505734
0.3398534 -0.20316738 0.319632 0.026929975 0.46287555 0.26913857 0.080512226 -0.46313822
-0.3267942 0.34571606 0.17817372 -0.41670877 0.49783897 0.33486044 0.19037378 -0.15215182
-0.10968816 0.29598683 0.33208704 -0.05460614 0.47762376 0.17212987 -0.14860243 -0.19547236
0.39158493 -0.14633733 0.227444 0.123778105 -0.23612148 -0.06161213 0.25065446 0.4404235
0.19686228 -0.443335 0.031058013 0.25727624 -0.22691631 -0.05049473 -0.34940535 0.07954025
0.023641527 -0.011412144 0.052856266 -0.23019844 0.4403383 0.09773666 -0.35983068 0.31995308
-0.35730463 0.35239822 -0.16623849 -0.1853813 -0.29149336 -0.10134506 0.38762522 0.16950017
-0.21834266 0.25560468 0.013433039 0.48431307 0.39784342 0.15332198 -0.42056543 -0.28356928
-0.29886055 0.19975704 -0.38626492 -0.03275448 -0.46655053 -0.1373136 -0.33226293 -0.27189547
0.30807173 0.33299607 0.2593825 0.004662037 0.18031818 0.08513671 0.4372887 -0.011901677
0.12928885 0.12068552 0.19919783 0.17111886 -0.0006940365 0.06132245 -0.39164835 0.12129229
-0.28963256 -0.16290301 -0.20438671 0.35241598 0.13023925 -0.20849001 0.12192392 -0.05558318
0.32965016 -0.11007553 -0.2854154 -0.45377254 -0.46355516 -0.22366738 -0.015996933 0.37134403
0.11366391 -0.38969755 -0.21312857 0.19305891 -0.0058627725 0.2876445 -0.3303638 0.43266845
0.33946937 -0.15673375 0.1997273 0.276986 -0.4947011 0.38429004 0.3926593 0.3980229
-0.05373627 -0.3158036 -0.20591784 -0.46452427 -0.1754629 0.48240334 0.10917395 0.063454926
-0.49217492 0.32657552 0.48568845 0.22451729 0.4589998 -0.30148852 -0.3068182 -0.32148212
-0.49324125 0.029295564 -0.22532064 -0.2779833 0.067846 0.29180747 0.43662715 -0.3036644
-0.16149694 0.43706995 0.32684004 -0.17483121 0.2526145 -0.40662682 0.11636907 -0.308155
0.12265611 0.21278822 0.44321173 0.42527348 -0.10572153 0.40995347 -0.29962617 -0.06714749
0.28489494 0.116479576 0.34344834 0.22405428 0.0420354 -0.41930157 -0.1695072 -0.16622055
0.33220816 -0.46889156 -0.08814961 -0.372957 -0.37096334 0.42252958 0.47333473 -0.4305535
0.46632314 -0.15924346 -0.26793623 -0.08288407 -0.31094742 0.32184875 -0.2985028 0.37349862
0.49189317 -0.12339985 -0.36655152 -0.34961444 -0.43890536 0.2756223 0.0055012107 0.31289697
-0.07856536 -0.24733865 0.33970124 0.14754641 -0.108947456 0.29538375 -0.15620077 0.49666393
-0.41882277 0.42394423 0.15916371 -0.42859071 -0.44953096 0.44377512 -0.48297483 -0.047584295
-0.25121588 0.30134994 -0.27048266 0.48911047 -0.44017285 0.21025097 0.4380185 0.027568042
-0.39753455 -0.35655928 -0.28558892 -0.4775653 -0.092766464 0.40638638 -0.17606848 -0.115674734

actor.0.bias f4 [128]
00000000: 20cc ba3c 4496 88be 882b c4be 5284 b7be
00000010: ec77 d2be a012 9dbc 7e1f ebbe 0a99 a33e
00000020: f049 06be 8020 e5bb aa7d b03e 0a11 b7be
00000030: de29 a23e f47b ab3e c0a2 c7bc f6b8 acbe
00000040: bc50 dc3e b84c 08be 3c22 9b3e 60cb 16be
00000050: a0e2 9ebe 587a e3bd 4443 2f3e e24a ffbe
00000060: 9004 42bd c0f6 4cbc 4a02 dabe c27d 863e
00000070: 1898 2e3e 10c2 d43e 5881 49be 4463 cdbe
00000080: aa67 cdbe 0287 dbbe 8e61 a93e 4c85 5bbe
00000090: 805a eb3e e891 ad3d fc67 c6be 1c04 7ebe
000000a0: 7839 9b3d 0803 903e 269b 8ebe fc8b a2be
000000b0: 481d c6be 3c0d fdbe e0a5 f93e f067 fe3d
000000c0: 8ade f03e 0685 c6be 007b 18bb 300c 593d
000000d0: 60f1 ccbd 7084 00be 4cc7 adbe b411 09be
000000e0: ceb1 a0be 00c0 c438 b0ec 063e f017 d1be
000000f0: 9643 913e 8cea 0a3e fe46 c2be 601c 2abe
00000100: 4e1c f63e f61a f73e 5470 8b3e 7410 97be
00000110: 76b9 c8be 48a5 e4be a2e2 e43e 0441 2ebe
00000120: e849 92bd 7e22 85be a005 a63e 705d 63be
00000130: c067 b7be 062a 9bbe 487a ebbd c49e afbe
00000140: 98e8 bd3d f04e 173e 561f f8be 20ea a13c
00000150: d2f4 abbe 642e 74be eadb c6be 5835 f63d
00000160: 9463 f33e d87d 88bd 009f 88bd f0e8 e2be
00000170: b80b 823e 1275 e3be f463 18be 3aa2 973e
00000180: 1c20 e6be 2833 823e ea04 8f3e f8e3 62be
00000190: 708b 473d 382b 6f3e 72bb c63e 08c6 a7bd
000001a0: 74f5 f3be 68c5 edbe 7861 82be 40b3 373d
000001b0: 0ecc ff3e fa29 acbe 70fb 94bd 381c 093e
000001c0: fa76 b33e 8ce1 4bbe 2097 f03d 8056 b8bd
000001d0: 0091 c8bd e8b3 89be 4e2f a7be d080 afbd
000001e0: a804 a8be 54bc 803e 2047 08bd dcff 883e
000001f0: d0f0 953e e810 143e 94e6 d5be e60a adbe
0.022802413 -0.26677144 -0.38314462 -0.3584314 -0.41107118 -0.01917392 -0.45922464 0.31952697
-0.13114142 -0.0069923997 0.34470874 -0.35755187 0.31672567 0.33493006 -0.024369597 -0.33734864
0.43030345 -0.13310516 0.30299556 -0.14726019 -0.31032276 -0.111073196 0.17115504 -0.4986182
-0.047367632 -0.012510002 -0.4257987 0.2626782 0.17050207 0.41554308 -0.19678247 -0.40114796
-0.40118152 -0.4287644 0.3308224 -0.21437567 0.45967484 0.08475095 -0.3875121 -0.24806255
0.07579321 0.28127313 -0.27852744 -0.31747425 -0.38694215 -0.4942416 0.48759365 0.12422168
0.47044784 -0.38773364 -0.0023266673 0.05299014 -0.10006976 -0.12550521 -0.33941114 -0.1338566
-0.31385654 9.381771e-05 0.13176227 -0.40838575 0.28371876 0.13566035 -0.37944788 -0.16612387
0.4806847 0.48262757 0.27234137 -0.2950474 -0.39203995 -0.4465735 0.44704157 -0.17016989
-0.07143003 -0.26002878 0.32426167 -0.22203612 -0.35821342 -0.303055 -0.11497933 -0.34300816
0.09272879 0.14776206 -0.48461407 0.01976496 -0.3358522 -0.23845822 -0.38839656 0.12021893
0.4753691 -0.06664628 -0.06670952 -0.44318342 0.25399566 -0.44425255 -0.14881879 0.29615957
-0.44946373 0.25429654 0.27933437 -0.22157276 0.048716962 0.2335633 0.38814884 -0.08192068
-0.47648203 -0.46439672 -0.25464988 0.04484868 0.4996037 -0.33625776 -0.072745204 0.13389671
0.3505171 -0.19910258 0.11747575 -0.090008736 -0.097932816 -0.2689507 -0.32653278 -0.08569491
-0.32816052 0.25143683 -0.033270955 0.26757705 0.29285288 0.14459574 -0.4177748 -0.33797377

actor.2.weight f4 [128, 128]
00000000: 80a5 d8bc 9631 263d 612c 2fbd 7f63 833d
00000010: 186f aabc e654 70bd 4eca 3a3d 1d04 02bd
00000020: 0098 b9b8 3027 acbd 30fc a1bd ec6f e23c
00000030: 7219 543d 9646 4e3d 6100 86bd 03a5 873d
00000040: 2cc4 853c f609 303d d26d 433d d097 863b
00000050: 23ba acbd 109e ddbb a4d9 c03c 6da9 b0bd
00000060: 927c 233d 9888 3dbc 70e5 34bc bca6 b3bc
00000070: baf5 093d d680 9fbd 1814 373c 4e28 4f3d
00000080: 0ee0 463d 46c3 443d c09c 983c 01e6 a5bd
00000090: a21c 1f3d f850 763c 9c63 adbd a6b5 523d
000000a0: 2022 8abc 843d a0bc 9513 913d f8e8 e93c
000000b0: a70f 9d3d 7cf6 bb3c c5b9 9dbd cf6a a83d
000000c0: c46f 903c 6eef 723d 1f19 aebd 384a 1a3c
000000d0: 6c9e 25bd c164 58bd ecfb 98bd 719c 5abd
000000e0: 8840 26bc ac8f c3bc 60c1 703c c572 03bd
000000f0: 12f3 183d 005a 67bb d053 2abc 70d4 103d
00000100: 6dbf 57bd 9a2f 593d 2671 733d 5677 363d
00000110: f0e5 543c 9e9a 4a3d d712 9cbd 8a78 303d
00000120: 8f19 9f3d 0650 193d 0666 26bd 00ef 4fba
00000130: e122 72bd d4fc 79bd 9a2d 08bd 675e 88bd
00000140: 007d 1a3a a034 973b 8f99 9c3d 5e69 763d
00000150: 98b2 67bc 8c59 9f3c 2a17 363d d0cf 563c
00000160: 98ad 5fbd 164e 1d3d 83f7 a9bd 38c3 54bd
00000170: fb33 1cbd a69d 1cbd 8a2f 663d c018 eebb
00000180: e0dd dabb f50e 97bd db46 ae3d e057 21bc
00000190: 7aa4 b0bd 4de9 4cbd 8c44 06bd baf8 56bd
000001a0: d874 34bc 9ebb 793d ec26 963c f489 85bd
000001b0: d892 7dbc a76d 10bd 5292 a5bd f097 d63b
000001c0: d9dd adbd 684d 16bc c2ba 793d dc15 9abc
000001d0: e99d 933d b990 86bd 0695 67bd c848 87bd
000001e0: 66ee 1a3d dc26 11bd 937d 9abd 4711 803d
000001f0: 8d81 79bd 2889 c93c a23a f2bc 3c72 5abd
00000200: 2590 873d 7ed3 343d f047 003d f4d7 76bd
00000210: 051c 963d e496 eabc 3ad1 163d a288 033d
00000220: 2098 e63c b02c d6bb a0fd 043d 1c1c f33c
00000230: cf2a 9a3d 9e00 7f3d 1400 17bd 906d 8fbb
00000240: baa4 763d e6d5 523d 9bdb a83d bedb 3a3d
00000250: e5bf 1fbd 4e00 6d3d 11d3 b33d 5db0 25bd
00000260: 87a8 a03d ba0f 6e3d b5a0 933d 1086 3bbd
00000270: 8116 35bd b412 dc3c 4d9d 50bd d56c 83bd
00000280: e970 8bbd a682 84bd 772a a1bd 0c3a 803c
00000290: bc23 e33c 79c5 b33d 0da4 acbd 604a 95bd
000002a0: 7124 8bbd 28cf 5dbc 9747 0ebd 345b 86bd
000002b0: fb35 9e3d 69f8 4bbd 35e3 43bd 8cd3 a3bd
000002c0: 9fe6 ae3d d6eb 1dbd c23a f3bc f953 9bbd
000002d0: dd4e a63d e4b0 b73c 8423 c6bc 385e 9fbc
000002e0: e1e9 933d ee47 94bd fc0c a93c 1978 a63d
000002f0: bcd1 92bd e693 1e3d efee b13d 794e b4bd
00000300: 40a4 14bb 369e 8bbd 48f1 ef3c 20f0 853b
00000310: 731c 8d3d bc8e a33c b6d3 223d a183 a53d
00000320: ed31 973d 100d 7cbd 6aac 8fbd 808f 1a3a
00000330: 30d0 133c c81f e63c 77e0 8e3d 59e2 3cbd
00000340: 4fe6 923d 46c1 0a3d 4092 fb3b 8adf 3d3d
00000350: 7896 eebc b02c fb3b 4417 3cbd 34c2 b3bc
00000360: f24c 73bd a9c9 5abd 60ad 86bc 8a0f 2e3d
00000370: 012a 33bd b81a 89bd 9692 743d 76cd 87bd
00000380: 8b6d 4fbd 6def b1bd ed67 abbd 4e54 223d
00000390: e4f5 803c b68e 423d 1d36 b03d ce89 9cbd
000003a0: a780 b0bd 5816 81bc 09b0 963d 3528 94bd
000003b0: 8197 68bd 0244 96bd c864 ed3c 810d 1dbd
000003c0: 9aad f2bc 00c3 533c 967f 193d a081 f93c
000003d0: a261 273d b661 1c3d 616e 5cbd 71ad a83d
000003e0: 9fa1 8d3d 60b7 94bc 242a ba3c d20c 99bd
000003f0: 0efd 7b3d 06e4 15bd 52b9 4a3d 874b 973d
-0.026446104 0.040574633 -0.042766932 0.06415462 -0.020804927 -0.058674715 0.04560309 -0.031742204
-8.8497996e-05 -0.08405912 -0.07909429 0.02764126 0.05178208 0.050360285 -0.06543041 0.0662327
0.016328894 0.04297825 0.047712155 0.004107453 -0.0843394 -0.0067632273 0.02354128 -0.086260654
0.03991372 -0.011568211 -0.01104103 -0.021930091 0.03368161 -0.077882454 0.011174224 0.050575547
0.04855352 0.04803779 0.018629432 -0.081005104 0.038845666 0.015033953 -0.084662646 0.051442765
-0.016861975 -0.019560583 0.07083813 0.028553471 0.07669001 0.022944681 -0.07701448 0.08223497
0.017631419 0.05931037 -0.08500885 0.009417109 -0.040434286 -0.05283046 -0.07469925 -0.05337185
-0.010147221 -0.023872219 0.014694542 -0.032091875 0.037341185 -0.0035301447 -0.010395959 0.035358846
-0.052672792 0.053023912 0.05943408 0.0445474 0.0129942745 0.04946386 -0.07620781 0.043083705
0.07768547 0.037429832 -0.04062464 -0.0007932037 -0.059115294 -0.06103213 -0.033246614 -0.06658631
0.000589326 0.0046144277 0.076464765 0.06015908 -0.014141701 0.019451879 0.044455685 0.01311107
-0.05460891 0.038404547 -0.08299162 -0.051943988 -0.03813551 -0.038236283 0.05619768 -0.007266134
-0.0066792816 -0.073759 0.08509608 -0.009847611 -0.086251214 -0.05002718 -0.032780215 -0.052483298
-0.011014186 0.06096994 0.018329106 -0.06520453 -0.015476905 -0.035260823 -0.08084549 0.006548874
-0.0848958 -0.0091737285 0.06096912 -0.018809251 0.07207853 -0.065705724 -0.056538604 -0.06605679
0.03782501 -0.03543745 -0.07543483 0.062532954 -0.060914565 0.024601534 -0.029568974 -0.0533316
0.0661929 0.044147007 0.031318605 -0.060264543 0.07329563 -0.028636403 0.036820628 0.032112725
0.02814871 -0.006536089 0.03246844 0.02967649 0.07527696 0.062256448 -0.03686531 -0.0043770745
0.06021569 0.05147352 0.082450114 0.04561972 -0.039001364 0.05786162 0.08780492 -0.040451396
0.07844644 0.058120467 0.07208387 -0.04578215 -0.044210915 0.026864387 -0.050931264 -0.064172424
-0.06808645 -0.06470232 -0.07869428 0.015652679 0.027727 0.08777899 -0.08429728 -0.072895765
-0.0679406 -0.013538159 -0.034736242 -0.06560364 0.0772514 -0.04979745 -0.047824103 -0.07999334
0.08540081 -0.03855499 -0.029691104 -0.07584376 0.08120511 0.022423215 -0.024186857 -0.019454107
0.07222343 -0.07240282 0.020636074 0.081283756 -0.0716891 0.038715266 0.08688151 -0.0880403
-0.0022680908 -0.06817286 0.029289857 0.004087463 0.06890192 0.019965522 0.039752685 0.08081747
0.073825695 -0.061535895 -0.07015307 0.0005896017 0.009021804 0.028091326 0.06976407 -0.0461143
0.07172834 0.033875726 0.0076773465 0.04635576 -0.029124483 0.0076652393 -0.045920625 -0.02194319
-0.059399553 -0.053414974 -0.016440094 0.042495288 -0.04374123 -0.06694549 0.059710108 -0.066309854
-0.050641578 -0.08688245 -0.08369432 0.03963118 0.01574225 0.04749938 0.08604071 -0.07643472
-0.086182885 -0.015757725 0.07357795 -0.072342314 -0.05678511 -0.0733719 0.02897872 -0.038342956
-0.029623795 0.01292491 0.03747519 0.030457318 0.040864594 0.038179122 -0.053816203 0.08236206
0.069155924 -0.018153846 0.022725172 -0.074731484 0.06152063 -0.036594413 0.04949314 0.073874526

actor.2.bias f4 [128]
00000000: 87d1 acbd a074 89bd ee02 4d3d 8c3b 62bd
00000010: 68e0 74bc 7a38 2e3d db8a b1bd e079 d0bb
00000020: 86c6 183d de44 5c3d 9d4c 8c3d 9ecf 573d
00000030: b379 9c3d 5c70 803c 2ca4 56bd d491 bc3c
00000040: c095 87bc e76e a13d 9cee efbc 4a91 a3bd
00000050: 4e7c a1bd 58e7 61bc 4a99 e3bc bb1c 833d
00000060: 6002 74bd 2209 66bd cb91 b23d cfe1 ae3d
00000070: 9337 843d 2e6b 283d 0051 d0ba 8cf4 94bc
00000080: 8856 3d3c f86f 83bd c4a8 a7bd 301c 843c
00000090: 7456 b2bd 960f 0b3d d55a a23d 8059 68bd
000000a0: 1bac 41bd f5fb 973d 2002 1bbc 7f86 61bd
000000b0: 5d34 a1bd a30e 2bbd ca53 313d 5c3d a2bd
000000c0: dead 4e3d 7cd0 cdbc 6a41 51bd 98f0 6d3c
000000d0: 1e28 5f3d a0ff f03b 20c6 04bd 9876 8fbd
000000e0: 7e1b 9ebd e130 873d 8858 2c3c d8f1 33bc
000000f0: 7c7d d2bc 183f 0a3d 7a25 a6bd f81f 6ebc
00000100: 64ce fd3c fc66 ea3c 608b 5f3c 14ab f7bc
00000110: 5966 12bd 002f 1abc bf30 853d be81 f6bc
00000120: ab87 9b3d ca2e 5c3d e0f3 18bb 30b2 ecbc
00000130: d048 afbd 00ea 8dbd 985e 51bd b71c 963d
00000140: da3f 1d3d be4e aebd 262f 7b3d a146 8dbd
00000150: 67ca 1fbd 92c7 8fbd 9005 733c ea06 3e3d
00000160: f854 fc3c 165a 623d 8d4a 23bd 5776 8d3d
00000170: dc1d e63c c9e2 26bd c6cd a7bd a806 b93c
00000180: 980e 973c e0f4 6ebc 1a89 673d 62c1 88bd
00000190: c80d 58bd 9039 31bd d816 353c f01d c23c
000001a0: 8bad 6fbd d80c 93bc ca33 f9bc 1429 f03c
000001b0: 687c 67bc f904 9d3d bc45 aebc c089 d63b
000001c0: d3df 13bd a35e 983d 34e3 76bd 805e 46ba
000001d0: 7665 513d f6ad 423d f465 bfbc b9ff 34bd
000001e0: aea5 013d e5f8 acbd b0a2 183c f6a3 f8bc
000001f0: 7079 c6bb f324 923d f2f0 9fbd db5f b33d
-0.08438402 -0.067116976 0.050051622 -0.05523257 -0.014946081 0.04253433 -0.08669063 -0.006362185
0.0372987 0.053776614 0.0685055 0.052688234 0.076404 0.015678577 -0.05240266 0.023018755
-0.016550899 0.07882481 -0.029288583 -0.07986696 -0.07885037 -0.013788067 -0.027783055 0.06401964
-0.059572577 -0.056161053 0.08719214 0.08539163 0.064559124 0.04111784 -0.001589328 -0.018183015
0.011556275 -0.06417841 -0.08186486 0.016126722 -0.08707896 0.03395041 0.07927481 -0.05672598
-0.047283273 0.07421104 -0.009460956 -0.055059906 -0.07871316 -0.041762006 0.043292798 -0.079218596
0.05045878 -0.025123827 -0.051087774 0.014522694 0.054481618 0.0073546916 -0.03241551 -0.07005042
-0.077200875 0.0660112 0.010519154 -0.010982953 -0.025694601 0.033751577 -0.08112617 -0.014533989
0.030982204 0.02861356 0.013644069 -0.030232944 -0.035742138 -0.00941062 0.06503438 -0.030091163
0.07594236 0.05375556 -0.002333872 -0.02889356 -0.0855881 -0.069293976 -0.051115602 0.07329696
0.03839097 -0.08511113 0.06132426 -0.06898237 -0.039011385 -0.07020487 0.014832869 0.046393313
0.030802235 0.055261694 -0.03986602 0.06907337 0.02809041 -0.040743623 -0.08193545 0.022586182
0.018439576 -0.01458475 0.056527235 -0.0667751 -0.052747518 -0.043267787 0.01105281 0.023695916
-0.058515113 -0.01795046 -0.030420203 0.029316463 -0.014128782 0.07666964 -0.021273486 0.006547183
-0.036102127 0.074399255 -0.06027527 -0.0007567182 0.05112215 0.047529183 -0.023364045 -0.04418919
0.031652145 -0.0844591 0.0093161315 -0.03035162 -0.006056957 0.07135954 -0.078096285 0.08758517

actor.4.weight f4 [3, 128]
00000000: 98ba c1bc f441 033d d0ed 25bc 4009 a9bb
00000010: 6202 53bd e8c7 1bbd 4abe 5b3d 7991 963d
00000020: a0c7 933b 7e6d 2a3d d08a b6bc 9047 f23c
00000030: c602 133d 73fc a23d dec5 2c3d 003a 673b
00000040: 7ae7 3a3d 0e4e 5f3d b324 873d c896 083c
00000050: 88d9 91bd fe22 333d 62b8 3f3d 6064 7f3b
00000060: d1ee 99bd 50ba 923b c00e 943b 4e37 5a3d
00000070: d282 12bd 75aa 9a3d 38d4 0e3c 278a 8a3d
00000080: d1ab 9a3d 1bde 863d 40fc 0abc bec2 3a3d
00000090: 4656 82bd f76b 18bd ff32 943d 3e78 713d
000000a0: 4039 91bd b63d 223d 3c25 a5bd 1add 523d
000000b0: 524a 10bd 147e 9cbc c767 a83d af77 a8bd
000000c0: acfb e73c 04f0 42bd 3a68 653d bf66 4dbd
000000d0: 72ac 523d 13a4 81bd 0078 f8b9 4d96 2bbd
000000e0: e520 923d 068e a2bd 78f0 b83c 820b 3b3d
000000f0: d879 713c e330 813d 1878 73bd d670 713d
00000100: 5263 303d 84bb 6abd df38 813d e085 b7bb
00000110: 18f2 85bd a6c6 7dbd b2fd 78bd 3083 e8bb
00000120: 28ba 7cbd aaa5 443d d6e0 143d 61b3 4dbd
00000130: 0872 5dbd bcd1 9d3c c428 f9bc a2f5 a8bd
00000140: 7fc1 8abd 6f8c 8c3d 3897 243c 00f0 eeb7
00000150: c393 923d e095 d0bb f0c0 a33c 67f6 9fbd
00000160: 5111 8abd d9f6 80bd 14a4 f43c 789d f63c
00000170: 5229 533d c436 863c 0d73 963d abce ae3d
00000180: b852 5dbd 10c9 1f3c cd04 a73d ff2d a93d
00000190: 938d 8bbd a032 cdbb 5a64 ffbc 7029 10bc
000001a0: 0080 6337 ffa9 13bd 4576 34bd 78f8 353c
000001b0: f27d 6a3d 367d 203d d71a 8c3d d4f8 143d
000001c0: d1a5 a43d 3059 fb3c b8fa b0bd e403 c23c
000001d0: 9270 7a3d 1ce9 bcbc 0234 7f3d 2d1b 27bd
000001e0: 3d51 973d ae3f 73bd b6c2 13bd c832 04bc
000001f0: aa28 043d d085 793c 2c35 16bd 7015 82bb
00000200: f037 70bd d026 923c c7f3 04bd bab7 233d
00000210: 28d4 9e3c ae30 78bd 4090 eb3b a080 ccbb
00000220: 72cf 543d 2664 6c3d 9620 73bd 802d 593b
00000230: 82d7 64bd 6e44 95bd 3a60 6b3d 9e78 a2bd
00000240: ede9 75bd 992c 4fbd bc60 e03c 7cd4 8cbd
00000250: d15d 45bd 0a65 273d b867 10bd 6be3 a43d
00000260: 8ae5 6e3d 8aca 88bd ea08 693d de06 90bd
00000270: a331 a2bd 23c1 98bd 1d7c 8e3d 82a5 453d
00000280: e0da a8bd e395 83bd 6c4c b1bd d883 0a3d
00000290: 22d7 233d 5585 b1bd 1810 af3c 77d5 a13d
000002a0: 266a 80bd 4925 59bd a625 673d 7603 1a3d
000002b0: c873 66bc 6887 a23c 2439 a8bd d381 32bd
000002c0: 4200 95bd 8031 943c f04a 573c 7416 9bbd
000002d0: 78fc d43c 1f09 94bd 8876 a8bc 1f3f 28bd
000002e0: c0ea 8e3a 5418 883c 46bd 2abd 5be4 41bd
000002f0: 2f69 8c3d f497 84bd db83 8d3d dc45 a7bc
00000300: c941 b43d 3068 9b3b a009 0c3d 5811 6ebd
00000310: e3d2 6dbd 3621 72bd d9b4 a6bd 6700 af3d
00000320: e942 31bd 819b aa3d 7ab6 09bd 53c1 7dbd
00000330: 8007 883a 0350 803d 3aaf 9abd 0627 473d
00000340: e040 2bbc 0028 ebba a031 f8bb 4ea9 563d
00000350: 93f2 873d 0202 7fbd a40b d73c 0052 e8ba
00000360: eb44 b3bd ed9f a03d 2828 f83c e4d4 d43c
00000370: b025 febc ba6d 733d 0420 bd3c 783d 4a3c
00000380: b1e8 863d 3efd 263d 9e8f f6bc d245 533d
00000390: 2e66 683d 80c8 b03a 440f 913c e34d 8fbd
000003a0: 33e8 a9bd ce0b a4bd d04c 7a3c 3b02 8c3d
000003b0: 7028 76bd 6869 c53c 7403 80bd a187 7bbd
000003c0: 80fa 763b 9526 a53d 1e77 4b3d 0b68 9b3d
000003d0: f11b 13bd 92f2 7d3d 04ca 7ebd e07e 97bb
000003e0: f090 703c 3b2b 31bd e088 97bc 242d e73c
000003f0: 4cfd 3ebd 18d7 8bbc ec7a 55bd 1495 ea3c
-0.023648545 0.03204532 -0.0101275 -0.0051585734 -0.051515944 -0.038032442 0.05364827 0.073519655
0.004509881 0.041608326 -0.022282988 0.02957514 0.035891317 0.07958307 0.04218089 0.0035282373
0.04563091 0.054517798 0.06598797 0.00833673 -0.07121569 0.043734543 0.0468067 0.003896974
-0.07516254 0.0044777766 0.00451836 0.0532754 -0.03576929 0.07552043 0.008717589 0.06764632
0.07552303 0.06585332 -0.008482993 0.045595877 -0.063641116 -0.03721234 0.07236289 0.058952563
-0.07090998 0.039609633 -0.080637425 0.05148039 -0.035227127 -0.019103087 0.08222919 -0.08225953
0.028318249 -0.047592178 0.0560076 -0.050146814 0.051433988 -0.06330123 -0.00047391653 -0.041891385
0.071351804 -0.07937245 0.022575602 0.04566527 0.0147385225 0.063081525 -0.059440702 0.0589455
0.04306347 -0.057307735 0.063096754 -0.005600676 -0.06540316 -0.061957024 -0.060788818 -0.007095717
-0.06170097 0.048009552 0.036347233 -0.050219897 -0.054063827 0.019265048 -0.030414946 -0.08249976
-0.06775188 0.06862723 0.010045819 -2.848357e-05 0.071570896 -0.0063655227 0.01998946 -0.078106694
-0.06741584 -0.062970825 0.029863395 0.030104384 0.051553078 0.016383536 0.07346163 0.085355125
-0.054033965 0.009752527 0.081552126 0.08260726 -0.068141125 -0.0062621385 -0.031175781 -0.008798942
1.3560057e-05 -0.036050793 -0.044058103 0.011106603 0.057249017 0.03918191 0.06841057 0.036370113
0.080394395 0.030682176 -0.08641571 0.023683496 0.06114251 -0.023060374 0.062305458 -0.0407974
0.07388542 -0.0593869 -0.036074363 -0.008068748 0.032265343 0.015229657 -0.036671802 -0.0039698407
-0.058647096 0.017840773 -0.032459047 0.039970137 0.019388273 -0.0605933 0.007188827 -0.006240919
0.051955648 0.057712696 -0.05935725 0.0033138692 -0.055869587 -0.072884426 0.057464816 -0.07933162
-0.060037542 -0.05057964 0.027389877 -0.06876466 -0.048185173 0.040867843 -0.035255164 0.08051189
0.058324374 -0.06679256 0.056893267 -0.0703256 -0.07919624 -0.07458713 0.069572665 0.048253544
-0.08244872 -0.06425073 -0.086571544 0.033817142 0.04000009 -0.08668009 0.021369979 0.07902043
-0.06270246 -0.053014074 0.05643239 0.037600957 -0.01406569 0.019839957 -0.08214024 -0.04358084
-0.0727544 0.01809001 0.013140425 -0.07572642 0.025999293 -0.07228302 -0.020564333 -0.041075822
0.0010903701 0.016613163 -0.04168441 -0.047336917 0.06856 -0.06474295 0.06909915 -0.020419054
0.0880161 0.0047426447 0.034188867 -0.05812201 -0.058062445 -0.059113704 -0.08139963 0.085449986
-0.0432767 0.08330441 -0.03362129 -0.061951946 0.0010378212 0.06265261 -0.07552953 0.0486212
-0.010452479 -0.0017940998 -0.007574275 0.052407555 0.06638064 -0.062257774 0.026250668 -0.0017724633
-0.087533794 0.078430034 0.030292585 0.02598042 -0.03102383 0.059430815 0.023086555 0.012343757
0.06587351 0.040768854 -0.030097779 0.051580258 0.05673807 0.0013487488 0.017707475 -0.069972776
-0.082962416 -0.08010064 0.015277103 0.06836363 -0.060097158 0.024098113 -0.06250659 -0.061408643
0.003768593 0.080639996 0.049674146 0.07588204 -0.03591532 0.06199891 -0.062204376 -0.004623279
0.014682993 -0.04325412 -0.018497884 0.028219767 -0.04662828 -0.017070338 -0.05211918 0.02863554

actor.4.bias f4 [3]
00000000: bc9e c83c 90e4 bcbc 7abe 1e3d
0.024489753 -0.023058206 0.03875587

critic.0.weight f4 [128, 4]
00000000: f41d 9b3e aeea 98be c8c5 c53e c03f d2be
00000010: 6eb8 e53e 84e9 4d3e 3cf4 a43e 2cc5 a93e
00000020: 1035 093d 4cee d83e aed7 b0be 7ce1 143e
00000030: 6c1b 5e3e 2077 29bd 165d cb3e 1457 c63e
00000040: c2ba 993e 4c95 223e 2091 9ebd 62bd 97be
00000050: aea2 87be 2c61 d33e 20c1 263d 72fb b6be
00000060: 16a2 ffbe aa1b 993e d0d5 843d 08c0 bd3d
00000070: 80b2 973e b8c4 f4be 4657 843e c006 4ebd
00000080: 3090 7fbe d8a0 8ebd f0ec e73e f040 503d
00000090: cccf ca3e 5add b1be c420 323e e263 a4be
000000a0: 4c86 febe f687 f6be 5c0f cdbe 9a38 9fbe
000000b0: 4051 4d3e 9efc d0be 304c 7d3e 3ec2 8dbe
000000c0: da15 f43e 580c 58be 2803 04be 84b1 39be
000000d0: bcee 8abe f0a4 c6bd 1ac6 f5be 944e 4cbe
000000e0: 5488 e33e e872 3ebe e80f babe b0a0 2c3e
000000f0: 68b5 dcbe e478 c7be da57 c7be 68e6 3d3e
00000100: 3cb3 34be d4c5 c53e f0c1 133d 800a 663d
00000110: f07f 0c3e c048 d2be 0609 f53e 00f6 853d
00000120: 1648 f5be 5011 9b3d 646f 89be b802 e8be
00000130: 2c89 bf3e f04d eebe ec88 c5be ba37 98be
00000140: 3844 d83e d2c1 c73e 88d9 b43e 1826 a1bd
00000150: f0f5 4c3d 205a 4ebd 201d fd3c c02d 6c3d
00000160: e4ad d73e 3a0b 8dbe 3c34 b03e 1e4d c9be
00000170: 9e31 f93e 78da b63e fc4d 973e ba4d 953e
00000180: bc02 db3e dc74 003e 8e80 bdbe e8c2 adbe
00000190: 74bf 66be 1ead e8be a082 ef3e 00b1 c03c
000001a0: 2482 d83e 06ed 873e 002a 1bbd 6a73 a4be
000001b0: 8c30 c7be aea4 babe 20e5 1cbe 5405 313e
000001c0: 044d dc3e 428b 9bbe 8a1d 883e 2a05 dcbe
000001d0: e08c fc3e 344f 743e ec89 8d3e a8bf 26be
000001e0: 92a2 be3e 765b b23e d2a3 cbbe 3219 a23e
000001f0: 9cd4 9fbe d4c7 e43e 7aaf cabe 9e94 da3e
00000200: 52a0 f43e 58fd d5be c0cf 453c 6041 cbbd
00000210: f423 fd3e a4e6 223e 0cd2 003e 3ecf d4be
00000220: 68ab 5f3e 48d2 f43e 746e c13e 2059 843e
00000230: 7863 fc3d 001a 8cbe 1637 ac3e 42af d5be
00000240: 901f 17bd 74f0 623e fc6f 6d3e 3eef 95be
00000250: c868 c83d 6621 d7be 809a 94bb 004f 943b
00000260: 00a6 0bbd 7094 27bd 801d 8b3d 90ec a43d
00000270: bc30 663e ec1d 4dbe e06f 38be 88e7 1d3e
00000280: 10ed 0f3e 182b 45be d6eb afbe 18d5 42be
00000290: 384d f83e 88b0 713e 904e b3be c0b1 8bbd
000002a0: 2824 3dbe 769d f9be ba0b fcbe 60a4 eabc
000002b0: dca7 60be f0ee e93d c603 e6be 704b 81bd
000002c0: 6a4e cfbe bc89 d8be 508e b5be 6030 a5bc
000002d0: b28e e93e 8cf8 efbe 3ad2 f1be a618 f13e
000002e0: 8c80 ecbe a0f1 97bd 80cf 5f3e 006b 863b
000002f0: d431 47be 8057 9cbb b6bc fabe cabe d3be
00000300: ec6d 303e b476 0ebe 682c d6bd e041 6f3e
00000310: 542e b63e 80bb 0b3e e6b2 f2be a2d5 ce3e
00000320: 2848 efbe 10ef b6bd a01b 1f3d f84d 463e
00000330: 30dd 18be 30f7 623e 103d 44bd 4cc7 5a3e
00000340: c6c9 8cbe d6bc 8dbe f085 903e 1844 80bd
00000350: 50f7 13bd f235 cf3e ba5c dabe f86a c5bd
00000360: 1450 543e 2ebb 89be d8ec ff3d 18ee 893e
00000370: 903a d43e c2e9 eabe d448 523e 8408 abbe
00000380: 78af fdbe e6e0 eabe fc1f 333e 2074 eb3e
00000390: dedd fd3e 78cd 9a3d acbb a13e 7a67 e83e
000003a0: 70ef d93d 8c08 59be b0b9 0b3e 705a 00be
000003b0: 90dd fb3d c688 a03e 36e9 c4be 7024 4a3e
000003c0: e09c acbe d863 67be 00b1 44bb 6cf4 dd3e
000003d0: c0a5 59bd 544b eebe 34c1 70be 44c0 2abe
000003e0: 30a0 27bd fcad 36be 8801 dcbd 62a7 b33e
000003f0: 7a63 973e 148f 383e 543a 3a3e c018 f03e
0.3029629 -0.29866546 0.38627458 -0.41064262 0.4486727 0.2010861 0.32217586 0.33158243
0.03349787 0.42369306 -0.3453955 0.1453914 0.21690148 -0.041373372 0.39719456 0.3873831
0.30025297 0.15877265 -0.07742524 -0.29636675 -0.26491302 0.41285074 0.040711522 -0.35738713
-0.4992835 0.29903919 0.06486094 0.09265143 0.29628372 -0.47806334 0.25847834 -0.050299406
-0.24957347 -0.06964272 0.45297956 0.05084318 0.3961166 -0.3473919 0.17395312 -0.32107455
-0.49711835 -0.48150605 -0.4005078 -0.3109787 0.20050526 -0.40817732 0.24736094 -0.27687258
0.4767292 -0.21098459 -0.12891829 -0.18134123 -0.27135265 -0.09699428 -0.48002702 -0.1995185
0.44439948 -0.18598521 -0.3634026 0.16858172 -0.43107152 -0.3895942 -0.38934213 0.18544924
-0.17646497 0.38627493 0.036073625 0.056162357 0.1372068 -0.4107113 0.47858447 0.065410614
-0.4790656 0.075716615 -0.26842797 -0.45314574 0.3740934 -0.46543837 -0.38581026 -0.29730016
0.42239547 0.3901506 0.35322213 -0.07868594 0.05003923 -0.05037892 0.030897677 0.057660818
0.42124856 -0.27547628 0.34414852 -0.39316648 0.48670667 0.35713553 0.29551685 0.29160863
0.42775524 0.12544578 -0.37012142 -0.33937764 -0.22533971 -0.45444578 0.46779346 0.0235219
0.4228679 0.26548022 -0.03788185 -0.32119304 -0.38904226 -0.36453766 -0.15321779 0.17287189
0.43027508 -0.30379683 0.26585037 -0.4297269 0.4932623 0.23858339 0.2764429 -0.16284049
0.37233406 0.34835404 -0.39773422 0.31659847 -0.31216896 0.44683707 -0.39587003 0.4269151
0.47778565 -0.41794848 0.012073457 -0.09924579 0.49441493 0.15908295 0.12580127 -0.41564363
0.2184273 0.47816682 0.37779582 0.25849247 0.1232366 -0.27363586 0.33635777 -0.41735274
-0.036895335 0.22162038 0.2318725 -0.2928409 0.097856104 -0.42017668 -0.0045350194 0.004526019
-0.034093857 -0.040913045 0.06792736 0.08052933 0.22479528 -0.20030946 -0.18011427 0.15420353
0.14055276 -0.1925472 -0.34359616 -0.19026601 0.48496413 0.23602498 -0.35020876 -0.068210125
-0.18470824 -0.48752946 -0.49227697 -0.028642833 -0.21939033 0.11422527 -0.44924754 -0.06313217
-0.40489513 -0.42292583 -0.35460138 -0.020164669 0.4561668 -0.46869314 -0.47230703 0.47089118
-0.46191823 -0.07419133 0.21856499 0.004102111 -0.19452602 -0.004771173 -0.489721 -0.41356498
0.17229432 -0.13912469 -0.104576886 0.23364973 0.3558222 0.13645744 -0.47402114 0.40397364
-0.46734738 -0.08932316 0.038844705 0.1936568 -0.14928126 0.22164607 -0.047909796 0.21365088
-0.2749769 -0.27683133 0.28227186 -0.06262988 -0.036124527 0.40470845 -0.4264887 -0.09639543
0.20733672 -0.2690062 0.12496346 0.26939464 0.4145093 -0.45881468 0.20535594 -0.33404934
-0.49547935 -0.4587471 0.1749267 0.45987034 0.49583334 0.07558721 0.31588495 0.45391446
0.10641372 -0.21194667 0.13645053 -0.12534499 0.12298119 0.3135435 -0.38459176 0.19740462
-0.33713436 -0.22596681 -0.0030012727 0.43350542 -0.053136587 -0.46541846 -0.23511201 -0.16674906
-0.04092425 -0.17839807 -0.107424796 0.3508864 0.29568082 0.1802333 0.18186313 0.46893883

critic.0.bias f4 [128]
00000000: d446 67be 50ac 013d ec26 97be ec8c 90be
00000010: f8d5 71be aec4 b73e 480a 833d 68c9 a73d
00000020: b048 ed3e 6857 983e 1e7e 94be 3026 a73d
00000030: a064 7f3e 3c85 563e 444a f9be a05f d83c
00000040: aee6 e6be 10d6 d73e 0001 e63e 60c8 0abd
00000050: c88e ef3e 6c9d 623e a246 f13e 6087 9cbd
00000060: ec01 eabe f035 c73e f862 a7bd e89b 333e
00000070: 505f 343e 8c7e fcbe 3e61 b83e 80e4 e43c
00000080: 424a d03e 80b8 44bc d6ca e33e 04ea c8be
00000090: b252 b13e 6075 fb3c d826 ea3d 8ccb 10be
000000a0: d0f9 f73d 9839 3bbe 88da 163e 4ec5 df3e
000000b0: 9855 463e 40f1 7abe 482e a2be b20a ba3e
000000c0: bc33 c2be 7805 163e 2887 6e3e 80cf 9dbd
000000d0: 687b f1be a09c aebe 1e9b c33e 2491 d03e
000000e0: 60ba 893c a06f 473d 50c9 803d ec74 7fbe
000000f0: 186f b13e 5e06 aebe 7620 833e f8de f9bd
00000100: c8b2 d9bd ec65 c13e d042 c53e 00fd 0b3d
00000110: 94ef 39be 5016 633d 10fb 9b3d 867d ea3e
00000120: ca16 d1be 4a1c e23e 702c 383e 90ae 473d
00000130: 00c9 cb3d f442 ccbe c0fb 6f3c 00cb be3c
00000140: 9ee9 ec3e b47b 88be 2835 89bd 1825 a73d
00000150: 40d3 223c b020 6cbe 20e4 2f3d 5c6c b3be
00000160: 8e69 dc3e 64ae d23e 14db babe 38b2 d33e
00000170: 04c1 7c3e 00bd 32be 0091 d2bc 0e85 b83e
00000180: 8856 ccbe 10a0 17be a0cb d1be eaf6 b8be
00000190: 2449 62be 6098 843e fc4b f8be 7ac2 eebe
000001a0: 6cfe 893e b48f 1ebe 6a7a 9d3e b25c fabe
000001b0: 8a5e f63e 60b6 4d3e 1a12 813e d061 693d
000001c0: 6833 8fbd 2094 f8bc 0cee 6abe 10f2 dc3e
000001d0: 424e b73e 0098 95bc 74a9 aebe 7877 e2bd
000001e0: 9487 02be 10c1 903d 5ad2 b33e fc6e 213e
000001f0: 6cbc 913e d4e6 cdbe 4e23 b0be 7063 e63e
-0.22585613 0.03165847 -0.29521883 -0.28232515 -0.23616779 0.35892242 0.06398445 0.08192712
0.4634452 0.29754186 -0.2900247 0.081615806 0.24940729 0.20949262 -0.48689473 0.026412785
-0.4509787 0.42155504 0.44922638 -0.0338825 0.4678862 0.22130364 0.471242 -0.07643008
-0.4570459 0.3890834 -0.08173174 0.17539942 0.17614484 -0.49315298 0.3601169 0.027940989
0.40681654 -0.012006879 0.4449069 -0.3924104 0.34633404 0.030695617 0.1143319 -0.14140147
0.12108195 -0.18283689 0.147318 0.4370522 0.19368589 -0.24506092 -0.31675935 0.36336285
-0.37930095 0.14650524 0.23293746 -0.07705593 -0.47164464 -0.3410387 0.38204283 0.40735734
0.016812503 0.04869044 0.06288397 -0.24946946 0.3465507 -0.33989233 0.25610703 -0.12200731
-0.10629803 0.37773073 0.38527536 0.034176826 -0.18157798 0.0554412 0.07616246 0.45798892
-0.408377 0.44162208 0.17985702 0.04875046 0.09950447 -0.3989483 0.014647424 0.023290157
0.46271986 -0.26656878 -0.06699592 0.08161372 0.009938061 -0.23059344 0.042942166 -0.3504361
0.43049282 0.41148674 -0.36495268 0.41346908 0.24683005 -0.1745491 -0.025703907 0.36039013
-0.39909768 -0.14807153 -0.40975666 -0.3612588 -0.22098213 0.25897503 -0.4849547 -0.4663275
0.2695192 -0.15484506 0.30757457 -0.48898846 0.48119003 0.20089102 0.25209123 0.056978047
-0.06992227 -0.030344069 -0.2294237 0.4315343 0.35801893 -0.018260956 -0.34113657 -0.11057943
-0.12747031 0.07068074 0.35121423 0.15764993 0.28464067 -0.4021517 -0.34401935 0.4499774

critic.2.weight f4 [128, 128]
00000000: e041 273c cfbd a9bd fb89 a3bd d745 1bbd
00000010: 4090 abba a0a1 d1bc f462 52bd 54dd b3bc
00000020: e550 9e3d de6e 7bbd bbce 56bd b695 6e3d
00000030: 1485 57bd 2454 dcbc 6046 6a3b 5465 e03c
00000040: 0748 b03d 6c82 97bc 08f2 94bc 5e73 303d
00000050: 0af9 a7bd ddfc af3d 504b 9bbb 3862 0c3c
00000060: c006 703c 24e6 b63c cb3e 9bbd d57d 2abd
00000070: 152f b1bd 2a21 1f3d 5406 0c3d d3f3 10bd
00000080: d456 2bbd 44a7 ab3c 8caf a9bd 90c0 b83c
00000090: b801 4c3c 84f6 8cbd 6976 45bd dbae 973d
000000a0: c0d0 8bba cae4 743d 4042 92bd 82d1 333d
000000b0: f8c9 043c a5ef 983d 942f a93c caa3 eabc
000000c0: 7efb 013d f403 ef3c a670 4d3d c4b9 62bd
000000d0: ee72 3f3d c610 0d3d ce53 91bd 6e2b 1d3d
000000e0: baa5 18bd 8ceb b63c d391 973d 97e5 883d
000000f0: 793b 99bd 91e3 933d 464c 7d3d d31d 973d
00000100: 9425 e5bc d894 4f3c f0ce 8d3b 0621 26bd
00000110: bac4 673d 581d 22bc 4640 1fbd c01e bb3b
00000120: fe95 343d d1db 9f3d 5093 833c 955e 53bd
00000130: d007 813b 5bfc 813d 3a2f 36bd d831 d3bc
00000140: a0b2 b83b 03ae 80bd 5f41 9cbd 75a7 8a3d
00000150: 6e40 503d 0489 d93c 9893 64bd caeb 1a3d
00000160: 1282 613d cc4b 9bbc 9ea1 dfbc d2ba d9bc
00000170: c941 923d e96a 19bd b2e6 073d 82c9 04bd
00000180: 4819 9bbd c02c eeba c02b d2ba 28b7 33bc
00000190: f1d5 80bd 54fe 39bd 7074 42bc 5f1f 913d
000001a0: 84e6 7dbd 081a a5bd c06e a2bb a831 463c
000001b0: beab 5b3d 98ab 5dbd a0af edbb b6b1 2e3d
000001c0: 080a 9abd 24ba 8abd d0c6 8e3c 0660 763d
000001d0: fa21 793d 806e 26bc d720 a33d e451 bdbc
000001e0: e6c6 56bd 6b09 973d ecc5 9abd 6e6a 3d3d
000001f0: 2226 143d 2eda 493d 7540 8b3d 76a6 513d
00000200: 46ea 2f3d 200f 303c a0d9 65bd 505f 4abc
00000210: b85d 1bbd bbf8 29bd 4c60 6cbd a75f 823d
00000220: 387b 95bd 4708 9d3d 2536 ae3d 7b9c 873d
00000230: 6051 353c 1ef8 5bbd fb4e 983d ca25 28bd
00000240: 5ca9 9dbc 9d17 873d b135 923d 5080 60bd
00000250: 767a 763d 6d48 7cbd 04db a63c 6608 26bd
00000260: b5a2 b4bd 506c cf3c 20e0 053c 22f7 193d
00000270: 7ec9 4f3d 367d 583d 36db 773d 9b7b 9b3d
00000280: 3cfa c0bc 5044 c6bb e152 87bd c664 1f3d
00000290: dd08 893d e405 e93c 0082 8eb9 0575 ab3d
000002a0: 4059 aabb f1a6 29bd 24ab b8bc 4439 f73c
000002b0: e3d6 9abd ce72 123d 4268 e3bc bfca 853d
000002c0: 7739 5fbd 6cff c6bc 2a07 a6bd 3cbd a13c
000002d0: 86fb 5f3d c615 dabc f531 803d f49a 95bc
000002e0: 402e 58bb aa58 363d 687e 2e3c c87c 88bd
000002f0: e770 ad3d e862 c5bc 7ca8 94bc e5bb ac3d
00000300: 000c 3a3b c817 b0bc 9803 3e3c 3085 c1bc
00000310: ca67 46bd 85d0 b03d 2321 acbd f869 0e3d
00000320: c0b7 603b 22eb 753d 909c 87bc 68aa a9bc
00000330: deaf 443d a13b b1bd 285f 80bd 9464 c3bc
00000340: 4233 7b3d 0c96 c93c 3ba5 a83d ce4d 053d
00000350: 30d8 f6bc 9dc0 863d 8faf afbd 958c 95bd
00000360: 2df3 a7bd f8a8 c3bc 8aab 87bd 1468 d63c
00000370: 940a 71bd 18a1 8a3c 26c8 713d c0a3 4abd
00000380: fd6a 823d e6f0 233d 73ff 93bd 782a be3c
00000390: 1425 903c 1880 a8bc f61c 2f3d 43f3 823d
000003a0: 342c a3bc 004e 10ba 40ca 4bbc e03f 0fbc
000003b0: bf4f 81bd c82e 213c a772 a23d 5d2d 89bd
000003c0: d66e 7b3d fe68 2fbd 22d2 323d 5c55 96bd
000003d0: 7ab0 303d 15b0 8c3d e069 d9bb 788d aabd
000003e0: 00fb 353a 20d1 bb3b 6eed dbbc ca39 473d
000003f0: 6897 aebd 8245 533d af40 833d b621 773d
0.010208577 -0.08288156 -0.07985302 -0.0379084 -0.0013089254 -0.025589764 -0.0513639 -0.021956123
0.07730273 -0.061385028 -0.052443247 0.058248244 -0.052617148 -0.02689559 0.0035747513 0.027392067
0.08607488 -0.018494807 -0.018181816 0.043078773 -0.08201797 0.08593152 -0.0047392026 0.008568339
0.014650047 0.022326536 -0.07580336 -0.04162391 -0.08651558 0.038849987 0.034185722 -0.03538878
-0.041830853 0.020953782 -0.08285436 0.022552758 0.012451582 -0.068829566 -0.048208628 0.07406398
-0.0010667071 0.059788503 -0.071415424 0.043900974 0.008104794 0.074675836 0.02065257 -0.028642554
0.031733982 0.02917669 0.050156258 -0.05535294 0.046740465 0.034439825 -0.070960626 0.038371496
-0.037267424 0.022329114 0.07400861 0.06684416 -0.07482047 0.07221139 0.06184032 0.073787354
-0.02797202 0.012669764 0.0043276474 -0.040558837 0.056584097 -0.009894691 -0.038879655 0.005710453
0.044088356 0.078055985 0.016061455 -0.051603872 0.003937699 0.06346961 -0.044478633 -0.025780603
0.005636528 -0.0628319 -0.07629656 0.06770221 0.050842695 0.026554592 -0.05580482 0.037822522
0.055055685 -0.018957041 -0.027298745 -0.02657834 0.07141454 -0.037455473 0.033178993 -0.032418735
-0.075731814 -0.0018171296 -0.0016034767 -0.010968961 -0.06290806 -0.04540856 -0.011868581 0.07086062
-0.061987415 -0.08061606 -0.00495705 0.0120968 0.053630583 -0.054118723 -0.007253602 0.042649947
-0.075214446 -0.06773785 0.017428786 0.06015017 0.06082342 -0.010158181 0.07965248 -0.023110338
-0.052435778 0.07374843 -0.07557282 0.046244077 0.03616918 0.049280338 0.067994036 0.05118414
0.04294803 0.010745794 -0.056115746 -0.012351826 -0.037931174 -0.041496973 -0.057709023 0.063659005
-0.07298893 0.076675944 0.08506421 0.06621643 0.011066765 -0.05370342 0.07436939 -0.041051663
-0.019245796 0.06596301 0.07139147 -0.05480987 0.06017538 -0.061592508 0.020368107 -0.040535353
-0.088200964 0.025320202 0.008171111 0.0375892 0.050729267 0.052853785 0.06051179 0.07591935
-0.023556821 -0.006050624 -0.06607605 0.038914464 0.06691144 0.028445192 -0.00027181208 0.08371929
-0.0051986277 -0.041418973 -0.022542544 0.030178674 -0.07560518 0.035754018 -0.027759675 0.065328114
-0.054498162 -0.024291717 -0.08106835 0.019743554 0.05468323 -0.02662171 0.062595285 -0.018262364
-0.0032986552 0.04451815 0.010650255 -0.06664425 0.084688 -0.024095014 -0.018146746 0.084342755
0.00283885 -0.021495715 0.0115975365 -0.023623079 -0.048438825 0.08633522 -0.08404758 0.03476903
0.003428921 0.060038693 -0.016554147 -0.020711139 0.048019283 -0.086539514 -0.062681496 -0.02385167
0.06132818 0.02460768 0.0823464 0.032544903 -0.030132383 0.06579707 -0.08578407 -0.073022045
-0.08200679 -0.023884282 -0.06624515 0.026172675 -0.05884798 0.016922519 0.059028767 -0.04947257
0.06368063 0.04002466 -0.072264574 0.02321361 0.017595805 -0.020568892 0.04275223 0.06394055
-0.019918539 -0.0005504787 -0.012438357 -0.008743256 -0.063140385 0.009837814 0.079320244 -0.066981055
0.061385 -0.042824738 0.04365743 -0.073405 0.04313705 0.068695225 -0.0066349357 -0.08327764
0.0006942004 0.0057317168 -0.026846614 0.048639096 -0.08524972 0.05157996 0.06408822 0.060334884

critic.2.bias f4 [128]
00000000: 7e3c 5e3d c548 71bd a094 b0bc ca0a 6a3d
00000010: ad1a afbd 1e7b 34bd 8d79 9b3d b047 8ebc
00000020: 80db a6ba 80d5 573a e2e8 613d 6e59 1c3d
00000030: 5b33 803d 2417 143d e63f e0bc b0d0 45bc
00000040: c6df 1c3d 4a35 003d 2221 1e3d 02b9 93bd
00000050: a70b 9b3d ed33 803d 4c36 143d a0b7 4cbc
00000060: 6028 3f3b 5465 b23c 1d8d 56bd fbf6 813d
00000070: 4e9e 693d 1368 46bd 13ef 47bd 98f3 64bc
00000080: ca04 5abd cec5 1e3d 46e7 263d b039 ecbb
00000090: 1496 1dbd 00a3 8d39 c2db 24bd 0b18 2cbd
000000a0: 140d c2bc d730 a03d d0a0 2abc 269d 90bd
000000b0: 7d7a a13d 8a06 a4bd 2001 82bb 1b96 993d
000000c0: 0c56 7ebd ef51 b13d 1085 6dbd dbcb 2dbd
000000d0: 8a2d 7e3d 85d7 8c3d 4123 9ebd e819 4f3c
000000e0: eb0f 05bd 844d 9fbc b144 873d 9624 91bd
000000f0: 77dd 53bd d031 263c ac71 b03c 1bab 4dbd
00000100: 2060 0e3c 4624 753d 3127 b03d b86f 013d
00000110: bd3b 9a3d d027 96bb 70d8 933b 1a4c d7bc
00000120: 7e0b 183d b3a3 b0bd 50fe ff3b a808 cc3c
00000130: d08d 3a3c ce6b 6dbd 82cb 7a3d 3dd4 9a3d
00000140: b62a 66bd e4b3 cd3c 7e1a 513d 4163 a23d
00000150: 2cc7 95bc 5eac 363d 22f5 2c3d b274 9fbd
00000160: f0d1 0fbc f0db 9a3b c28a 143d b030 8d3c
00000170: 041e a33c 3833 52bc b7b3 8a3d 5d2a 9f3d
00000180: 3cfe debc 6087 8c3b 0708 0cbd dcad b53c
00000190: 2c21 af3c 1073 d9bb 6689 303d a43c 5ebd
000001a0: 8a4a 353d e0a0 f7bc 9276 583d 8c02 9f3c
000001b0: 00e5 06ba 649a 83bc 0a54 4a3d e8e8 853c
000001c0: 9f7e 1fbd 0ed5 febc 80cd 36ba 4f06 9dbd
000001d0: e677 743d 1286 353d 902d cabc de6b 0bbd
000001e0: 4005 05bb 90e1 a3bd 38f6 fb3c 8a8a 693d
000001f0: 21db 97bd d7bd 45bd 069f 163d 502f 1fbd
0.05425691 -0.05890729 -0.021555245 0.057139196 -0.0855001 -0.044062726 0.07591543 -0.017368168
-0.0012730211 0.0008233413 0.055153735 0.038171224 0.06259795 0.03615488 -0.02737422 -0.012073681
0.038299344 0.03130082 0.038605817 -0.07213022 0.07570582 0.06259904 0.036184594 -0.0124949515
0.0029168352 0.021776833 -0.05238067 0.06345936 0.057035737 -0.048439097 -0.048811983 -0.013974093
-0.053227223 0.03876286 0.040747903 -0.0072090253 -0.038473204 0.0002701506 -0.04024864 -0.042015117
-0.023687877 0.078218155 -0.010414317 -0.07061224 0.07884691 -0.0800906 -0.0039674193 0.074993335
-0.06209378 0.08658206 -0.057988226 -0.04243074 0.06205515 0.068770446 -0.07721568 0.012640454
-0.032485884 -0.019446142 0.06604899 -0.07087056 -0.051724877 0.010143712 0.021538578 -0.050212007
0.00868991 0.059849046 0.08601225 0.031600684 0.075309254 -0.0045823827 0.0045118853 -0.026281405
0.037120335 -0.08624973 0.007812299 0.024906471 0.01138635 -0.05796414 0.061229236 0.075600125
-0.056193076 0.025110193 0.051050656 0.079290874 -0.01828345 0.044597976 0.042225964 -0.0778593
-0.00877808 0.0047259256 0.036265142 0.01723513 0.019911774 -0.012829594 0.06772559 0.07771752
-0.027220838 0.004288599 -0.034187343 0.02217763 0.021378122 -0.006636031 0.043099783 -0.05425705
0.04426054 -0.030228078 0.052847452 0.019410394 -0.0005145818 -0.01606483 0.049396552 0.01634641
-0.038939115 -0.031107452 -0.0006973371 -0.07667219 0.059684657 0.044317313 -0.024679929 -0.034038417
-0.0020297319 -0.08002007 0.030757055 0.057016887 -0.074148424 -0.04827675 0.03677275 -0.03886348

critic.4.weight f4 [1, 128]
00000000: 6abf 243d b87a 3dbd 79a6 43bd f658 2e3d
00000010: 003d 023c b680 603d 99c7 993d e97d 7abd
00000020: b462 143d c1ea ab3d 4a44 453d 5fb0 a53d
00000030: a066 8fbd 9201 4d3d 482d a1bd 384b 23bc
00000040: 8c9d b5bc 60f3 76bc 20a8 0cbb ecc3 99bd
00000050: 28aa 3cbd e68a 01bd 365b 43bd 6d94 913d
00000060: 34dd 6ebd 40df adbb 3883 e73c 12dc 4e3d
00000070: 64c4 3fbd bc62 e33c 3237 72bd d00c 103d
00000080: ae5c 1a3d 6cc3 a0bd 90a9 f73b 86af 51bd
00000090: b816 52bc 34f0 16bd cfa0 a23d a575 0bbd
000000a0: 3ab9 013d ae0b 3a3d 184a 19bc dcd8 993c
000000b0: f0b8 edbb a0d2 913b 94af 96bd 8870 92bc
000000c0: e475 a5bc 501e 063d c87d 613c 30ad 873c
000000d0: 8f5c ab3d 8093 1ebc 7406 8c3c 004a a33a
000000e0: 82f3 493d 6f1e aa3d b02f 933c 4f4e b43d
000000f0: e468 ed3c 1dda 903d b848 2ebc 3808 70bd
00000100: 2c4d cdbc ed3b 9b3d 4608 2c3d f058 4ebc
00000110: fdeb b0bd c691 8bbd 6c1d a93c 1a2a 693d
00000120: ce0d 71bd b866 6a3c 98fb 37bc ac98 82bd
00000130: 56cd 263d 9a74 e0bc 0297 60bd 78a6 76bc
00000140: 2477 cc3c a613 6a3d 75ca 89bd a737 823d
00000150: 503a dc3c 429e 8bbd 4632 2a3d eae2 703d
00000160: 001b f43a b8a4 77bd 3baa 873d 2b3f b1bd
00000170: 4009 42bb e493 b4bd 20e6 0cbd df85 8c3d
00000180: 705c 59bc 9e54 213d 2868 d33c 011e 8b3d
00000190: c079 f0bc b467 81bc 2ca4 063d 233d 5abd
000001a0: bee7 74bd 3c14 aebc de77 3f3d 7d52 61bd
000001b0: e6c2 243d 58cd 8cbd d584 8b3d d0ad d8bb
000001c0: 99ed 59bd a287 6f3d b649 463d 0a27 adbd
000001d0: 8f42 9cbd 00ab 673b 4d2b 82bd c7ef 963d
000001e0: 6ca9 87bd 0da6 993d b204 0bbd fe30 2cbd
000001f0: 2886 b4bc 802e 03bd 8f85 2abd 00eb 86bd
0.04022161 -0.04625961 -0.047766183 0.04256531 0.007949114 0.05481025 0.07508773 -0.061155234
0.036226943 0.08394385 0.04816083 0.08090281 -0.07001996 0.050050326 -0.07869965 -0.009966664
-0.02216985 -0.015072674 -0.0021462515 -0.07508072 -0.04606071 -0.031626604 -0.047694407 0.07108388
-0.058316424 -0.0053061545 0.028260812 0.050502844 -0.046818152 0.027757041 -0.05913467 0.03516847
0.037686042 -0.07849774 0.007558055 -0.051192783 -0.012822799 -0.03685017 0.07940828 -0.03404774
0.031670786 0.045421295 -0.009356044 0.018780164 -0.0072547123 0.0044501573 -0.073577076 -0.017875925
-0.020197816 0.032743752 0.013762899 0.016562074 0.083672635 -0.009678721 0.01709292 0.0012457967
0.049304493 0.08306586 0.017967075 0.08803999 0.02898068 0.07072852 -0.010637455 -0.058601588
-0.025061212 0.07579789 0.042000078 -0.012594447 -0.08638761 -0.068149135 0.020643912 0.056924917
-0.058851056 0.014306717 -0.011229418 -0.06376776 0.040723167 -0.02739935 -0.054831512 -0.015054338
0.024959154 0.057147644 -0.06728069 0.06358271 0.026883274 -0.06817295 0.04155185 0.058810152
0.0018623769 -0.060459822 0.06624266 -0.086546265 -0.0029607564 -0.088172704 -0.03439915 0.068614714
-0.013266668 0.039387338 0.025806502 0.06792832 -0.02935493 -0.01579652 0.03287141 -0.05328096
-0.05979132 -0.021249883 0.046745174 -0.055010308 0.040224932 -0.06875104 0.06812445 -0.006612517
-0.053205106 0.05847896 0.04841014 -0.08454712 -0.076298825 0.0035349727 -0.06355915 0.07369953
-0.066241115 0.07502375 -0.033940025 -0.04203891 -0.022036627 -0.032026768 -0.041631278 -0.065877914
